DataRater-main/mnist_20250920_1037_a11efc10/data_rater.pt (torch, 9721 bytes, 5 tensors)

layers.0.weight f4 [8, 1, 3, 3]
0	0x3e7fff33	0.24999695
1	0x3db6f9f3	0.08934393
2	0x3e4b5ddf	0.19860028
3	0x3e623daa	0.22093835
4	0xbe23b92c	-0.15988606
5	0xbe98f2a6	-0.29872626
6	0x3d06827c	0.032839283
7	0xbe937475	-0.28799787
8	0xbc0a766f	-0.008451088
9	0x3ca365d4	0.019946016
10	0x3be8f22e	0.007108948
11	0xbe82abeb	-0.25521788
12	0xbe370614	-0.17873412
13	0x3eb6f804	0.35736096
14	0xbe9b133f	-0.3028812
15	0x3e98a552	0.2981363
16	0x3daad1e0	0.08340812
17	0x3dadbc8e	0.084832296
18	0xbeb738dd	-0.3578557
19	0x3e9469b6	0.289869
20	0x3eb98577	0.36234638
21	0xbecc9da5	-0.39964023
22	0x3eabd6e6	0.33562392
23	0xbe4bfdce	-0.19921038
24	0x3d324027	0.04351821
25	0x3dc5d82e	0.09660374
26	0x3e15422f	0.14576028
27	0xbeb6ba5a	-0.3568905
28	0xbe86b709	-0.2631152
29	0xbecebf6e	-0.40380424
30	0xbea2ca80	-0.3179512
31	0x3d538a86	0.051645778
32	0xbed785f5	-0.4209439
33	0xbe8f5fd3	-0.28002796
34	0x3db3a865	0.08772353
35	0xbe0453c8	-0.12922585
36	0xbe0cc951	-0.13748671
37	0x3e91ce18	0.2847755
38	0x3e780049	0.24218859
39	0x3eb375a1	0.3505068
40	0x3e63084e	0.22171137
41	0x3e8c9cd8	0.27463412
42	0x3e67f03a	0.22650233
43	0x3eb3ae9b	0.3509415
44	0xbb1a1deb	-0.0023516368
45	0x3ed9a050	0.4250512
46	0x3da447bf	0.08021497
47	0xbeb0e2e1	-0.34548095
48	0xbc1c95e1	-0.009557218
49	0x3d5ff53e	0.05467724
50	0xbe22a663	-0.15883784
51	0x3e931c52	0.28732544
52	0xbe569818	-0.20956457
53	0x3e8caf5e	0.27477545
54	0xbecd1931	-0.40058282
55	0xbe75afdc	-0.23992866
56	0xbe5751aa	-0.21027246
57	0xbe9116ce	-0.2833771
58	0xbe9c025d	-0.30470553
59	0xbe276c8a	-0.16349998
60	0x3dc88a95	0.097920574
61	0xbe6adfaa	-0.22936884
62	0xbe208f3d	-0.15679641
63	0x3e85bdfa	0.26121503
64	0xbe864cb4	-0.26230395
65	0xbe10f745	-0.14156826
66	0x3ecc1743	0.39861497
67	0x3e4d4d36	0.20048985
68	0xbe8d8c72	-0.27646214
69	0x3ea9b9c0	0.33149529
70	0xbe1f3949	-0.15549196
71	0x3e91cdb1	0.28477243

layers.0.bias f4 [8]
0	0x3d124ecd	0.03571968
1	0x3deb5495	0.11490742
2	0x3ea32cc3	0.31870088
3	0x3dbe62e3	0.09296205
4	0x3e8be902	0.27326208
5	0x3e418671	0.18898942
6	0x3e268623	0.16262107
7	0x3ed49353	0.4151865

layers.3.weight f4 [16, 8, 3, 3]
0	0xbc705fd2	-0.014671283
1	0x3d8e1a37	0.06938594
2	0x3d743576	0.059621297
3	0xbd951dda	-0.07281084
4	0x3d84739b	0.064673625
5	0x3ccbfa17	0.024899526
6	0x3da6a1b4	0.08136311
7	0xbd4f7aff	-0.050654408
8	0xbdb9b43e	-0.090675816
9	0x3e0dd293	0.13849859
10	0x3d569b11	0.052393977
11	0x3c2c9af8	0.010534994
12	0x3db9f6c0	0.09080267
13	0xbd9413a7	-0.07230311
14	0xbe0b2688	-0.13588917
15	0x3dc3c471	0.095589526
16	0x3c3aadd9	0.011393988
17	0x3d6737d8	0.05644974
18	0x3b45919d	0.0030146607
19	0xbe1853d0	-0.14875722
20	0xbe1748c9	-0.14773859
21	0x3d2464b1	0.04013509
22	0xbe2cdc84	-0.16880995
23	0xbe0cd7e4	-0.1375423
24	0x3df8a3cc	0.12140617
25	0xbd74c6ad	-0.059759784
26	0xbd9539bc	-0.072864026
27	0xbdbb1904	-0.09135631
28	0xbc8f9252	-0.017525826
29	0x3c8a9c10	0.01692012
30	0xbda24eb2	-0.07925166
31	0x3b318e72	0.002709296
32	0xbcd00ab5	-0.02539573
33	0xbe1b3426	-0.15156612
34	0x3c518d94	0.0127901025
35	0x3d6b0056	0.057373367
36	0x3df96331	0.121771224
37	0xbdf64102	-0.12024118
38	0xbdea2c4e	-0.11434232
39	0x3bfb1364	0.0076622237
40	0x3d29af22	0.041426785
41	0xbd0c2aa9	-0.03422037
42	0x3d48a6e8	0.0489873
43	0xbc5d33a5	-0.013501083
44	0xbd8900e3	-0.06689622
45	0xbda5e2c2	-0.08099891
46	0x3c558069	0.013031104
47	0x3d13484b	0.035957616
48	0x3af5d391	0.0018755068
49	0x3e16cd42	0.14726737
50	0x3c8470aa	0.016167004
51	0x3e0b44c9	0.13600458
52	0x3dd3062d	0.10303912
53	0xbd2c3cff	-0.042050358
54	0xbd8436e2	-0.064557806
55	0xbdd44ec4	-0.10366586
56	0x3d055212	0.03254897
57	0xbe2ef23c	-0.17084593
58	0x3b180090	0.0023193695
59	0x3c8a1428	0.016855314
60	0xbe460634	-0.19338304
61	0x3d8ebe1a	0.06969853
62	0x3deb494a	0.11488588
63	0xbbb35fbe	-0.00547406
64	0x3d2c049e	0.04199659
65	0xbdb179c6	-0.086658046
66	0x3dd6d117	0.104890995
67	0x3ceaae43	0.028647548
68	0xbe0e61cb	-0.13904493
69	0x3e0a47e8	0.13503993
70	0x3e0b1aeb	0.13584487
71	0xbdd6daf4	-0.10490981
72	0x3d2eb6ba	0.04265473
73	0xbda059ed	-0.07829652
74	0x3cb80709	0.022464292
75	0xbc56f55b	-0.013120021
76	0x3d2ff3bc	0.042957053
77	0x3cac4f1b	0.021033814
78	0xbd81b64b	-0.06333598
79	0x3cd8b9b7	0.026455743
80	0xbc8f32ce	-0.01748028
81	0xbd1e53f8	-0.038654298
82	0x3c97e0bb	0.018539777
83	0xbe08013f	-0.13281725
84	0x3e3d42d1	0.1848252
85	0xbdd24e6b	-0.10268863
86	0xbd7a5f0c	-0.0611258
87	0x3e07e7f2	0.13272074
88	0xbda90937	-0.08253711
89	0x3d03a5cb	0.032140534
90	0x3c9fce18	0.019507453
91	0xbd9ca645	-0.07648901
92	0xbd3678dc	-0.044548854
93	0xbc0318bd	-0.008001504
94	0xbe2adff3	-0.16686992
95	0xbe16e5a8	-0.14736044
96	0x3e0047ee	0.12527439
97	0x3aa5e265	0.0012655972
98	0xbd94e9c8	-0.07271153
99	0xbdc2c06b	-0.09509357
100	0xbd6cb50b	-0.057789844
101	0x3de69133	0.11258163
102	0xbdc4fd7e	-0.09618662
103	0x3d8158de	0.06315778
104	0xbd9a4614	-0.075328976
105	0xbe1218e9	-0.14267315
106	0x3d80df35	0.06292573
107	0x3b958d08	0.0045639314
108	0x3daec5f3	0.085338496
109	0xbd015fe1	-0.031585578
110	0xb9369fda	-0.00017416422
111	0x3e114d55	0.14189656
112	0xbcd53b16	-0.026029151
113	0x3bbe9b73	0.005816871
114	0x3d3dc401	0.046329502
115	0xbc640b64	-0.013918731
116	0x3da14175	0.07873813
117	0x3d481788	0.048850566
118	0xbd24c4db	-0.0402268
119	0xbe2c4d7b	-0.16826431
120	0x3e37fa5b	0.17966597
121	0x3e143e6f	0.14476942
122	0x3b1e0d14	0.0024116682
123	0x3daf5fe5	0.08563212
124	0xbd58c92f	-0.05292624
125	0x3dbdb4fa	0.09263034
126	0xbdec451c	-0.11536619
127	0x3d895f15	0.067075886
128	0x3dc529e0	0.09627128
129	0xbd17e24b	-0.037081044
130	0xbd831149	-0.06399781
131	0xbc7cdf17	-0.015434048
132	0xbe1fcbd2	-0.15605095
133	0xbde43f63	-0.111449026
134	0x3c06c503	0.008225682
135	0x3dd4f746	0.10398726
136	0x3da86978	0.082232416
137	0xbd7d4737	-0.061835494
138	0x3ce32cfd	0.027731413
139	0x3e01e318	0.12684286
140	0xbdd4603f	-0.1036992
141	0x3e10400a	0.14086929
142	0x3df85d3e	0.121271595
143	0x3bfdb905	0.0077430033
144	0x3d7ad258	0.061235756
145	0xbe056336	-0.13026127
146	0x3b91a342	0.0044445107
147	0xbda41d02	-0.08013345
148	0xbde45d0b	-0.11150559
149	0xbc806b56	-0.015676182
150	0xbe1a84ed	-0.1508977
151	0xbe2ae959	-0.16690578
152	0xbd79e406	-0.061008476
153	0x3d19d0f6	0.037552796
154	0xbe16b0c4	-0.14715868
155	0xbe14957f	-0.14510153
156	0xbe0a61bf	-0.1351385
157	0xbe4f5b8c	-0.20249766
158	0xbe537c8b	-0.20652978
159	0x3d065056	0.032791458
160	0xbc190af1	-0.009340988
161	0xbe14ddb7	-0.14537703
162	0x3b1437a3	0.002261617
163	0x3d55d01a	0.052200414
164	0x3d34e40e	0.044162802
165	0xbe30c07c	-0.17260927
166	0xbc32b31c	-0.010906961
167	0xbd5781a5	-0.052613873
168	0xbe0eef35	-0.13958438
169	0xbe311c5e	-0.17295977
170	0x3cd4ff07	0.026000513
171	0xbd11ce8e	-0.035597377
172	0x3da12e4f	0.07870161
173	0xbca6cccc	-0.020361327
174	0x3dbb7e08	0.09154898
175	0x3db741e3	0.08948114
176	0x3d8a113a	0.06741567
177	0x3e42dd69	0.19029774
178	0x3e07c93f	0.13260363
179	0xbd6228b2	-0.05521459
180	0xbde01296	-0.10941045
181	0xbd8e9df5	-0.06963722
182	0x3d498484	0.049198642
183	0xbe1f1272	-0.1553438
184	0xbe1e8ff1	-0.15484597
185	0xbde613d4	-0.11234251
186	0xbe060588	-0.13088048
187	0xbdfaa91e	-0.12239288
188	0xbbb9f6cd	-0.005675173
189	0xbd00cae5	-0.031443495
190	0x3d11e8f0	0.035622537
191	0x3d2f7209	0.04283336
192	0xbe1a92ee	-0.15095112
193	0xbe08bd0d	-0.13353367
194	0xbd74c4d9	-0.05975804
195	0xbc18594a	-0.009298632
196	0xbe3d03f9	-0.18458547
197	0xbe28420a	-0.16431442
198	0x3d211d24	0.03933443
199	0xbd2aebe5	-0.041728873
200	0xbd607ab2	-0.05480451
201	0x3c8d6dc4	0.017264254
202	0x3ca2cdf3	0.019873595
203	0x3d8cdea3	0.06878402
204	0x3d7cc694	0.061712816
205	0x3e2397e0	0.15975904
206	0xbd94a555	-0.07258097
207	0xbdcbc2fd	-0.099493004
208	0x3cb0ed9c	0.021597676
209	0xbdcd3492	-0.100197926
210	0xbe03be91	-0.12865664
211	0xbd845b37	-0.0646271
212	0xbdd359a5	-0.10319833
213	0xbd8ec725	-0.069715776
214	0xbe41163a	-0.18856135
215	0xbe09d8de	-0.13461635
216	0x3ceeb122	0.029137198
217	0x3e1b4f22	0.15166906
218	0x3d8df47c	0.06931397
219	0x3dcf99e1	0.10136772
220	0xbd09f16a	-0.033677496
221	0xbdb82ecd	-0.089933015
222	0x3db2bd16	0.087274715
223	0x3e2f277d	0.17104907
224	0x3df2ad6d	0.118494846
225	0x3e36a95d	0.17838044
226	0x3d00805a	0.031372406
227	0x3df25cca	0.11834104
228	0x3d2191ee	0.03944581
229	0x3d4201eb	0.04736511
230	0x3e0403c0	0.12892056
231	0xbc0e4054	-0.008682329
232	0x3e27e827	0.16397153
233	0x3a72f4f0	0.0009268066
234	0x3ce79e6b	0.028273782
235	0xbd6f73fc	-0.05846022
236	0x3dd02f36	0.10165255
237	0x3dbb89b5	0.09157125
238	0x3d26ccc4	0.040722623
239	0xba57a27a	-0.000822581
240	0x3d195102	0.03743077
241	0xbd9d0441	-0.07666827
242	0x3e162a39	0.14664544
243	0xbdcabadb	-0.09898921
244	0x3d34930f	0.04408556
245	0xbb3bb9d1	-0.002864469
246	0xbdabff96	-0.083983585
247	0xbc7de604	-0.0154967345
248	0x3db95012	0.09048475
249	0xbe020d0d	-0.12700291
250	0x3beab0b9	0.0071621803
251	0xbc23cc4b	-0.009997438
252	0x3e15fd20	0.14647341
253	0x3d79c7e0	0.06098163
254	0xbe05609f	-0.1302514
255	0xbcb321c4	-0.021866687

layers.3.bias f4 [16]
0	0xbe1fb483	-0.15596204
1	0xbcb8f7f9	-0.02257918
2	0xbd0c98c5	-0.03432538
3	0xbc63b327	-0.013897694
4	0x3ccdc0cb	0.025116345
5	0xbe59567f	-0.21224402
6	0xbd9da246	-0.07696967
7	0x3e282496	0.16420206
8	0x3c5c3c96	0.013442179
9	0xbe0f146f	-0.13972639
10	0xbd83aaf3	-0.0642909
11	0xbe1107c2	-0.14163116
12	0xbd9510bb	-0.07278582
13	0x38ac1711	8.2058956e-05
14	0xbdccf9b5	-0.10008565
15	0xbdb7d925	-0.08976964

head.weight f4 [1, 400]
0	0xbdcb3084	-0.09921363
1	0xbd5c9cf2	-0.053860612
2	0xbd9ab447	-0.075539164
3	0x3e06b519	0.13155021
4	0x3cd74171	0.026276322
5	0xbdcc6355	-0.099798836
6	0xbd1f8f15	-0.038954813
7	0xbd5c21fa	-0.05374334
8	0x3dd356ea	0.10319312
9	0x3d0f4f03	0.03498746
10	0xbbd6c503	-0.0065542473
11	0x3c029f38	0.007972531
12	0xbdec34cd	-0.115335084
13	0x3d5da6d6	0.054114185
14	0xbdf75429	-0.12076599
15	0x3c32d32e	0.010914607
16	0x3d29249e	0.041294686
17	0x3d3fdedc	0.046843395
18	0x3d873945	0.0660272
19	0xbd6f5e47	-0.05843952
20	0xbbf25c5d	-0.0073962645
21	0xbb17a1bd	-0.0023137175
22	0x3e0dd843	0.13852029
23	0x3deb6649	0.11494119
24	0xbc92dc0b	-0.01792719
25	0xbd698c94	-0.05701883
26	0xbd55d6c2	-0.052206762
27	0xbcb335be	-0.021876212
28	0x3df174b4	0.117898375
29	0x3d61e0b3	0.05514593
30	0x3ce62b46	0.028096806
31	0x3cd5d41b	0.026102116
32	0xbdd2edb0	-0.102992415
33	0x3dfbfffc	0.123046845
34	0xbcd25e01	-0.02567959
35	0xbd38fbf0	-0.04516214
36	0xbcb1a8f7	-0.021687014
37	0xbd946a4a	-0.072468355
38	0xbcd9f3f3	-0.026605582
39	0xbd5f6164	-0.05453624
40	0xbb008623	-0.0019611202
41	0x3c817547	0.015802993
42	0xbd8f0373	-0.0698308
43	0x3cf410cd	0.029793167
44	0xbe0287a9	-0.12747063
45	0xbd5ae8a1	-0.05344451
46	0x3cd6a885	0.026203403
47	0x3d9a1189	0.07522876
48	0x3e13275f	0.14370488
49	0xbd1eeedd	-0.038802017
50	0x3e0e16e7	0.13875924
51	0x3db51c3e	0.088432774
52	0x3ca3dae1	0.02000183
53	0xbd11d9dc	-0.035608158
54	0x3dcc0387	0.0996161
55	0x3d5564fd	0.052098263
56	0xbd05449f	-0.032536145
57	0x3d1b1277	0.037859406
58	0xbe010bae	-0.12602112
59	0xbd302182	-0.043000706
60	0x3d46d1be	0.04853987
61	0x3c8aeb43	0.016957885
62	0x3dc8dec5	0.09808115
63	0x3c42d678	0.011891954
64	0x3d96d674	0.073651224
65	0x3d7f720e	0.06236463
66	0x3cafd603	0.021464353
67	0x3bc0103c	0.0058613103
68	0x3dc66a87	0.09688287
69	0x3c828029	0.015930252
70	0x3d3a850c	0.04553704
71	0xbd2abfe1	-0.041686896
72	0xbdf69924	-0.12040928
73	0x3d1feba0	0.03904307
74	0x3d4ceb0b	0.050028842
75	0xbdf45367	-0.1192997
76	0xbd9fb993	-0.07799067
77	0xbd846800	-0.06465149
78	0x3dac4a8c	0.08412656
79	0x3c1998e7	0.009374834
80	0xbcd73997	-0.026272578
81	0xbe08d674	-0.13363057
82	0xbe086f2d	-0.1332366
83	0x3e07a979	0.13248242
84	0x3adc10b1	0.0016789642
85	0xbde35a9b	-0.11101266
86	0xbd8c224e	-0.068424806
87	0xbe08f5e6	-0.13375053
88	0x3d1d79ad	0.038446117
89	0xbdad0da7	-0.084498696
90	0xbdd53c06	-0.10411839
91	0xbe1c54b2	-0.15266684
92	0xbcf5e259	-0.030015158
93	0xbd9f8687	-0.07789331
94	0xbdf3ee98	-0.119107425
95	0xbd9d88e1	-0.07692123
96	0xbd8ad1e4	-0.06778315
97	0x3bc691f2	0.0060598785
98	0xbbc3c5ab	-0.0059744916
99	0xbd811627	-0.06303053
100	0xbca4bb07	-0.020108713
101	0x3c5a0ff0	0.013309464
102	0x3d89ca3b	0.067280255
103	0x3c99001d	0.018676812
104	0x3e04ae46	0.12957105
105	0x3d177525	0.036976952
106	0xbc95082a	-0.01819237
107	0x3dcdcc2b	0.100487076
108	0x3db9fba7	0.09081202
109	0x3d156ad9	0.03647885
110	0xbdcb3ca1	-0.099236734
111	0x3e05c7e8	0.1306454
112	0x3d33bbe2	0.04388035
113	0x3da9933b	0.08280035
114	0xbd033a29	-0.032037888
115	0xbdb14aab	-0.0865682
116	0x3da88567	0.082285695
117	0xbd9e744f	-0.07737028
118	0x3dd32a74	0.10310832
119	0xbe104644	-0.14089304
120	0xbd017a7d	-0.031610955
121	0x3dbb9fd8	0.09161347
122	0xbcccb9c4	-0.024990924
123	0x3df207a4	0.118178636
124	0xbdab5d3f	-0.08367395
125	0xbdc3a3a5	-0.09552697
126	0xbc8bb296	-0.01705293
127	0x3cccb8a8	0.024990395
128	0x3e10e432	0.1414955
129	0xbda5a7f0	-0.08088672
130	0x3bd89a9c	0.0066102277
131	0xbdc0f2b1	-0.0942129
132	0x3e1661b6	0.14685711
133	0x3d33adf9	0.043867085
134	0x3d5bb399	0.053638075
135	0xbbbfd56c	-0.0058542993
136	0xbde44f11	-0.11147893
137	0x3dd682d8	0.10474175
138	0xbdc5f4e5	-0.096658505
139	0x3c3e63aa	0.011620441
140	0x3d013f6a	0.031554617
141	0xbd684d50	-0.056714356
142	0x3d90f80e	0.07078563
143	0xbd6d4e62	-0.05793608
144	0x3c4ebc9d	0.012618211
145	0x3be03174	0.006841833
146	0x3d2ead0d	0.042645503
147	0x3df7b364	0.12094763
148	0xbcf131c4	-0.029442675
149	0xbdac5c7c	-0.084160775
150	0xbd1f586f	-0.038902696
151	0xbd74ed4c	-0.059796616
152	0x3d8a07d2	0.06739773
153	0xbadbdcde	-0.0016774198
154	0xbd9b3fdf	-0.07580542
155	0x3be5ae89	0.0070093316
156	0xbdec7b20	-0.11546922
157	0x3d78c7c6	0.060737394
158	0xbd394353	-0.04523022
159	0xbd223814	-0.03960426
160	0x3c6e35de	0.01453921
161	0xbd80f306	-0.06296353
162	0x3dc63eaf	0.09679925
163	0xbd597468	-0.05308953
164	0x3d1dbdc4	0.038511053
165	0xbc6b0523	-0.014344486
166	0x3d615aa0	0.055018067
167	0x3da6edf6	0.08150856
168	0xbdbcf5e8	-0.092265904
169	0x3c05114d	0.008121801
170	0xbd4299da	-0.047510006
171	0x3db09977	0.08623021
172	0x3c0cb7b1	0.008588717
173	0xbd63f52d	-0.05565374
174	0x3d024ffb	0.031814557
175	0xbb8c295a	-0.0042773904
176	0xbd44f418	-0.04808435
177	0x3db96890	0.09053147
178	0x3ce62c5d	0.028097326
179	0x3d855d5d	0.06511948
180	0x3c45aea8	0.012065567
181	0xbd2fd3b5	-0.04292651
182	0x3dad456e	0.08460508
183	0x3cb8346a	0.02248593
184	0xbc0daed0	-0.008647636
185	0x3c328870	0.010896787
186	0xbba6057f	-0.005066573
187	0x3dafd097	0.08584707
188	0x3d0ec9f8	0.03486058
189	0x3bdda97d	0.0067645893
190	0xbb767fed	-0.003761287
191	0xbc1906bc	-0.0093399845
192	0xbd889566	-0.066691205
193	0xbda7a6bc	-0.08186099
194	0xbd719524	-0.058980122
195	0xbd08a4af	-0.03336018
196	0xbbf8d1ac	-0.007593354
197	0xbde2af7c	-0.11068627
198	0xbda908e1	-0.08253647
199	0xbd621da0	-0.055204034
200	0xbdd72f84	-0.1050711
201	0xbd154977	-0.036447015
202	0xbd28626f	-0.0411095
203	0x3e134071	0.14380051
204	0xbd00b9bc	-0.03142713
205	0xbd2b1620	-0.041769147
206	0xbd9630c6	-0.073335215
207	0xbd164842	-0.036690004
208	0x3debbd9d	0.11510775
209	0x3c81bbc7	0.01583661
210	0xbb3191ae	-0.0027094889
211	0xbddcd740	-0.10783243
212	0xbbb26d2b	-0.0054451427
213	0x3d7a255a	0.061070777
214	0xbbd9a110	-0.0066415146
215	0xbdab30a9	-0.083588906
216	0xbddaa3ae	-0.10675751
217	0x3d2dcd6e	0.04243224
218	0xbe10df4b	-0.1414768
219	0xbce79d82	-0.028273348
220	0xbd8cdcd3	-0.068780564
221	0xbcd8c113	-0.026459252
222	0x3e22ebc2	0.15910247
223	0xbd50be90	-0.050962985
224	0xbd314fd8	-0.043289036
225	0x3e3004e9	0.17189373
226	0x3d644589	0.055730376
227	0x3cb89355	0.02253119
228	0xbce70d4d	-0.028204584
229	0xbba3da86	-0.0050004153
230	0x3ce6b784	0.028163679
231	0x3c3f0448	0.011658736
232	0xbdbc71bc	-0.092013806
233	0x3dc78383	0.09741881
234	0xbd73f9cd	-0.0595644
235	0x3d837d20	0.0642035
236	0x3d7ef09a	0.062241174
237	0xbdb0a022	-0.08624293
238	0x3dc4ae32	0.096035376
239	0x39e5516c	0.00043738948
240	0x3bfac1af	0.0076524834
241	0x3d5bf6ef	0.05370229
242	0x3dba24c1	0.090890415
243	0x3d95fbcb	0.07323416
244	0xbd14536f	-0.03621238
245	0x3d4b6cc8	0.04966429
246	0x3c0ad5d7	0.008473835
247	0x3d9e258e	0.07722007
248	0xbe05703d	-0.13031097
249	0x3ce45082	0.02787042
250	0xbcd5bcde	-0.026091035
251	0xbdb4c61f	-0.08826851
252	0xbe322c62	-0.17399743
253	0x3d8f7fcb	0.070067964
254	0x3d4a02b4	0.049318984
255	0xbd67f3aa	-0.05662886
